…
W', 'TRUMPTER SWAN', 'TURKEY VULTURE', 'TURQUOISE MOTMOT', 'VARIED THRUSH', 'VENEZUELIAN TROUPIAL', 'VERMILION FLYCATHER', 'VIOLET GREEN SWALLOW', 'WATTLED CURASSOW', 'WHIMBREL', 'WHITE CHEEKED TURACO', 'WHITE NECKED RAVEN', 'WHITE TAILED TROPIC', 'WILD TURKEY', 'WILSONS BIRD OF PARADISE', 'WOOD DUCK', 'YELLOW CACIQUE', 'YELLOW HEADED BLACKBIRD']
229
Model: "sequential"
_________________________________________________________________
Layer (type)                 Output Shape              Param #   
=================================================================
random_flip (RandomFlip)     (None, 224, 224, 3)       0         
_________________________________________________________________
random_zoom (RandomZoom)     (None, 224, 224, 3)       0         
_________________________________________________________________
rescaling (Rescaling)        (None, 224, 224, 3)       0         
_________________________________________________________________
conv2d (Conv2D)              (None, 224, 224, 16)      448       
_________________________________________________________________
max_pooling2d (MaxPooling2D) (None, 112, 112, 16)      0         
_________________________________________________________________
conv2d_1 (Conv2D)            (None, 112, 112, 32)      4640      
_________________________________________________________________
max_pooling2d_1 (MaxPooling2 (None, 56, 56, 32)        0         
_________________________________________________________________
conv2d_2 (Conv2D)            (None, 56, 56, 64)        18496     
_________________________________________________________________
max_pooling2d_2 (MaxPooling2 (None, 28, 28, 64)        0         
_________________________________________________________________
conv2d_3 (Conv2D)            (None, 28, 28, 128)       73856     
_________________________________________________________________
max_pooling2d_3 (MaxPooling2 (None, 14, 14, 128)       0         
_________________________________________________________________
conv2d_4 (Conv2D)            (None, 14, 14, 256)       295168    
_________________________________________________________________
max_pooling2d_4 (MaxPooling2 (None, 7, 7, 256)         0         
_________________________________________________________________
dropout (Dropout)            (None, 7, 7, 256)         0         
_________________________________________________________________
flatten (Flatten)            (None, 12544)             0         
_________________________________________________________________
dense (Dense)                (None, 512)               6423040   
_________________________________________________________________
dense_1 (Dense)              (None, 229)               117477    
=================================================================
Total params: 6,933,125
Trainable params: 6,933,125
Non-trainable params: 0
_________________________________________________________________
Epoch 1/10
  1/906 [..............................] - ETA: 39:44:20 - loss: 5.4071 - accuracy: 0.0312
…
