Image count: 36047

Found 36227 files belonging to 229 classes.
Using 28982 files for training.
Found 36227 files belonging to 229 classes.
Using 7245 files for validation.
Model: "sequential"
_________________________________________________________________
Layer (type)                 Output Shape              Param #   
=================================================================
rescaling (Rescaling)        (None, 224, 224, 3)       0         
_________________________________________________________________
conv2d (Conv2D)              (None, 224, 224, 16)      448       
_________________________________________________________________
max_pooling2d (MaxPooling2D) (None, 112, 112, 16)      0         
_________________________________________________________________
conv2d_1 (Conv2D)            (None, 112, 112, 32)      4640      
_________________________________________________________________
max_pooling2d_1 (MaxPooling2 (None, 56, 56, 32)        0         
_________________________________________________________________
conv2d_2 (Conv2D)            (None, 56, 56, 64)        18496     
_________________________________________________________________
max_pooling2d_2 (MaxPooling2 (None, 28, 28, 64)        0         
_________________________________________________________________
conv2d_3 (Conv2D)            (None, 28, 28, 128)       73856     
_________________________________________________________________
max_pooling2d_3 (MaxPooling2 (None, 14, 14, 128)       0         
_________________________________________________________________
conv2d_4 (Conv2D)            (None, 14, 14, 256)       295168    
_________________________________________________________________
max_pooling2d_4 (MaxPooling2 (None, 7, 7, 256)         0         
_________________________________________________________________
dropout (Dropout)            (None, 7, 7, 256)         0         
_________________________________________________________________
flatten (Flatten)            (None, 12544)             0         
_________________________________________________________________
dense (Dense)                (None, 512)               6423040   
_________________________________________________________________
dense_1 (Dense)              (None, 229)               117477    
=================================================================
Total params: 6,933,125
Trainable params: 6,933,125
Non-trainable params: 0
_________________________________________________________________
Epoch 1/10
  1/906 [..............................] - ETA: 37:05:29 - loss: 5.4492 - accuracy: 0.0000e+00
…
